…
 from https://github.com/fchollet/deep-learning-models/releases/download/v0.1/vgg16_weights_tf_dim_ordering_tf_kernels.h5\n553467904/553467096 [==============================] - 17s 0us/step\n","name":"stdout"}]},{"metadata":{"trusted":true},"cell_type":"code","source":"model.summary()","execution_count":17,"outputs":[{"output_type":"stream","text":"Model: \"vgg16\"\n_________________________________________________________________\nLayer (type)                 Output Shape              Param #   \n=================================================================\ninput_1 (InputLayer)         (None, 224, 224, 3)       0         \n_________________________________________________________________\nblock1_conv1 (Conv2D)        (None, 224, 224, 64)      1792      \n_________________________________________________________________\nblock1_conv2 (Conv2D)        (None, 224, 224, 64)      36928     \n_________________________________________________________________\nblock1_pool (MaxPooling2D)   (None, 112, 112, 64)      0         \n_________________________________________________________________\nblock2_conv1 (Conv2D)        (None, 112, 112, 128)     73856     \n_________________________________________________________________\nblock2_conv2 (Conv2D)        (None, 112, 112, 128)     147584    \n_________________________________________________________________\nblock2_pool (MaxPooling2D)   (None, 56, 56, 128)       0         \n_________________________________________________________________\nblock3_conv1 (Conv2D)        (None, 56, 56, 256)       295168    \n_________________________________________________________________\nblock3_conv2 (Conv2D)        (None, 56, 56, 256)       590080    \n_________________________________________________________________\nblock3_conv3 (Conv2D)        (None, 56, 56, 256)       590080    \n_________________________________________________________________\nblock3_pool (MaxPooling2D)   (None, 28, 28, 256)       0         \n_________________________________________________________________\nblock4_conv1 (Conv2D)        (None, 28, 28, 512)       1180160   \n_________________________________________________________________\nblock4_conv2 (Conv2D)        (None, 28, 28, 512)       2359808   \n_________________________________________________________________\nblock4_conv3 (Conv2D)        (None, 28, 28, 512)       2359808   \n_________________________________________________________________\nblock4_pool (MaxPooling2D)   (None, 14, 14, 512)       0         \n_________________________________________________________________\nblock5_conv1 (Conv2D)        (None, 14, 14, 512)       2359808   \n_________________________________________________________________\nblock5_conv2 (Conv2D)        (None, 14, 14, 512)       2359808   \n_________________________________________________________________\nblock5_conv3 (Conv2D)        (None, 14, 14, 512)       2359808   \n_________________________________________________________________\nblock5_pool (MaxPooling2D)   (None, 7, 7, 512)         0         \n_________________________________________________________________\nflatten (Flatten)            (None, 25088)             0         \n_________________________________________________________________\nfc1 (Dense)                  (None, 4096)              102764544 \n_________________________________________________________________\nfc2 (Dense)                  (None, 4096)              16781312  \n_________________________________________________________________\npredictions (Dense)          (None, 1000)              4097000   \n=================================================================\nTotal params: 138,357,544\nTrainable params: 138,357,544\nNon-trainable params: 0\n_________________________________________________________________\n","name":"stdout"}]},{"metadata":{"trusted":true},"cell_type":"code","source":"transfer_layer = model.get_layer('block5_pool')\n#transfer_layer = model.get_layer('avg_pool')","ex
…
                 outputs=transfer_layer.output)\n#resnet_model = Model(inputs = model.input,\n #                   outputs=transfer_layer.output)","execution_count":19,"outputs":[]},{"metadata":{"trusted":true},"cell_type":"code","source":"vgg_model.summary()\n#resnet_model.summary()","execution_count":20,"outputs":[{"output_type":"stream","text":"Model: \"model_1\"\n_________________________________________________________________\nLayer (type)                 Output Shape              Param #   \n=================================================================\ninput_1 (InputLayer)         (None, 224, 224, 3)       0         \n_________________________________________________________________\nblock1_conv1 (Conv2D)        (None, 224, 224, 64)      1792      \n_________________________________________________________________\nblock1_conv2 (Conv2D)        (None, 224, 224, 64)      36928     \n_________________________________________________________________\nblock1_pool (MaxPooling2D)   (None, 112, 112, 64)      0         \n_________________________________________________________________\nblock2_conv1 (Conv2D)        (None, 112, 112, 128)     73856     \n_________________________________________________________________\nblock2_conv2 (Conv2D)        (None, 112, 112, 128)     147584    \n_________________________________________________________________\nblock2_pool (MaxPooling2D)   (None, 56, 56, 128)       0         \n_________________________________________________________________\nblock3_conv1 (Conv2D)        (None, 56, 56, 256)       295168    \n_________________________________________________________________\nblock3_conv2 (Conv2D)        (None, 56, 56, 256)       590080    \n_________________________________________________________________\nblock3_conv3 (Conv2D)        (None, 56, 56, 256)       590080    \n_________________________________________________________________\nblock3_pool (MaxPooling2D)   (None, 28, 28, 256)       0         \n_________________________________________________________________\nblock4_conv1 (Conv2D)        (None, 28, 28, 512)       1180160   \n_________________________________________________________________\nblock4_conv2 (Conv2D)        (None, 28, 28, 512)       2359808   \n_________________________________________________________________\nblock4_conv3 (Conv2D)        (None, 28, 28, 512)       2359808   \n_________________________________________________________________\nblock4_pool (MaxPooling2D)   (None, 14, 14, 512)       0         \n_________________________________________________________________\nblock5_conv1 (Conv2D)        (None, 14, 14, 512)       2359808   \n_________________________________________________________________\nblock5_conv2 (Conv2D)        (None, 14, 14, 512)       2359808   \n_________________________________________________________________\nblock5_conv3 (Conv2D)        (None, 14, 14, 512)       2359808   \n_________________________________________________________________\nblock5_pool (MaxPooling2D)   (None, 7, 7, 512)         0         \n=================================================================\nTotal params: 14,714,688\nTrainable params: 14,714,688\nNon-trainable params: 0\n_________________________________________________________________\n","name":"stdout"}]},{"metadata":{"trusted":true},"cell_type":"code","source":"# Start a new Keras Sequential model.\nnew_model = Sequential()\n\n# Add the convolutional part
…
nblock5_pool False\n","name":"stdout"}]},{"metadata":{"trusted":true},"cell_type":"code","source":"new_model.compile(optimizer=optimizer, loss=loss, metrics=metrics)","execution_count":29,"outputs":[]},{"metadata":{"trusted":true},"cell_type":"code","source":"new_model.summary()","execution_count":30,"outputs":[{"output_type":"stream","text":"Model: \"sequential_1\"\n_________________________________________________________________\nLayer (type)                 Output Shape              Param #   \n=================================================================\nmodel_1 (Model)              (None, 7, 7, 512)         14714688  \n_________________________________________________________________\nflatten_1 (Flatten)          (None, 25088)             0         \n_________________________________________________________________\ndropout_1 (Dropout)          (None, 25088)             0         \n_________________________________________________________________\ndense_1 (Dense)              (None, 1024)              25691136  \n_________________________________________________________________\ndropout_2 (Dropout)          (None, 1024)              0         \n_________________________________________________________________\ndense_2 (Dense)              (None, 512)               524800    \n_________________________________________________________________\ndropout_3 (Dropout)          (None, 512)               0         \n_________________________________________________________________\ndense_3 (Dense)              (None, 256)               131328    \n_________________________________________________________________\ndropout_4 (Dropout)          (None, 256)               0         \n_________________________________________________________________\ndense_4 (Dense)              (None, 1)                 257       \n=================================================================\nTotal params: 41,062,209\nTrainable params: 26,347,521\nNon-trainable params: 14,714,688\n_________________________________________________________________\n","name":"stdout"}]},{"metadata":{"trusted":true},"cell_type":"code","source":"## Set up a way to save our model weights when we see improvements in thee validation lo
…
